3d_scene/final_lstm_model/final_model.pt (torch, 872752 bytes, 9 tensors)

lstm.weight_ih_l0 f4 [512, 36]
0.069665335 0.07929352 -0.013745797 0.08149675 -0.018847337 0.017836101 -0.043032084 0.051908948
0.07791812 -0.064844176 0.07682682 0.016542714 0.0653021 0.011989345 0.042619802 -0.012479636
0.068137325 0.0130646 -0.041263208 0.022530042 -0.04072375 -0.01036554 -0.03589966 0.05863426
-0.069771126 -0.04074794 -0.024958633 -0.05314548 0.014899429 -0.080306835 0.08535396 -0.06997
0.07416948 0.021665711 -0.028698916 0.054628965 0.012008052 0.06926287 0.0073402077 -0.029235626
0.022337113 -0.025830396 0.035108827 0.0770874 0.049044847 -0.039780732 0.049656536 0.015193636
0.043908797 -0.054817848 -0.08932251 -0.03593386 -0.069679 0.07118313 0.023153717 0.03445148
0.025881307 -0.0015199583 0.06755486 -0.06473259 0.0060587605 -0.06314332 0.027756507 -0.029286224
0.02000802 -0.026255555 0.06622828 -0.059765976 -0.054391082 -0.05464199 0.07776251 0.02730909
0.08505175 -0.072944805 -0.08767029 -0.06915184 -0.059457876 0.03580083 0.03164973 0.07344403
-0.045645986 -0.06025538 0.046896927 -0.035726964 0.053644992 -0.020974614 0.050562195 -0.068674915
-0.04460516 0.026947528 0.018685967 -0.022535384 0.052685596 0.06008721 -0.064096875 -0.047187727
0.08093385 -0.029825103 -0.031335115 -0.08552409 -0.037161317 0.03548242 0.0016039865 -0.0508269
0.0020732954 -0.060376443 -0.07498838 -0.04867216 -0.0787345 -0.056822605 0.087785415 0.016694345
0.027237728 -0.082438424 -0.05805115 -0.029420577 0.013821386 -0.07777479 -0.038084157 -0.052915324
0.0002449453 -0.032889586 -0.006124936 -0.05989457 -0.060669333 -0.05156592 -0.030255105 -0.06976323
0.07411096 -0.017541908 0.07604905 0.027540222 -0.07484698 0.061167844 -0.024319597 -0.033881556
-0.07336856 -0.087872215 0.025288843 -0.019307889 0.033869244 -0.07310545 0.065622084 -0.064881794
-0.013620615 0.02072393 0.0478178 0.07314699 0.08263917 -0.06829132 0.024490079 -0.036005918
-0.0077490225 -0.06404736 0.08288375 -0.06311056 0.048918314 0.032089185 0.029564949 -0.045910638
0.08264727 0.021015748 0.013918855 -0.075070225 0.039479885 -0.011369563 -0.039000377 0.077278525
0.020931512 -0.04744535 -0.04420251 -0.0038818019 0.05089465 -0.021047963 -0.048835807 -0.028537953
-0.06384447 0.03386501 0.06994973 -0.081446856 0.022978937 0.046347402 0.019146925 -0.03012977
0.04823369 0.048099376 0.03626889 -0.014454317 -0.021857055 0.010356671 -0.01434352 -0.026796214
0.056350026 0.077034295 -0.0050679743 -0.019698521 0.0019027545 -0.0060019684 0.025335386 0.024171416
-0.08143179 -0.03257011 0.07274464 0.030827299 -0.0053999233 -0.05279098 -0.05228542 -0.07747319
-0.028190682 0.031242337 0.05609647 0.04199533 -0.077022046 -0.05116728 -0.012646792 0.08585709
0.011033449 -0.02530181 0.033713594 -0.036423303 -0.060006555 0.06343314 -0.042406965 -0.01882698
-0.08914849 0.054619227 0.063351564 0.030022603 -0.063840546 -0.09032895 -0.07232897 0.065305054
0.041495875 0.07419983 0.04232841 0.01780067 -0.006024123 -0.07102362 -0.08129286 -0.085093796
0.03372967 -0.045817584 -0.020239724 -0.05321229 -0.017669456 -0.06311484 -0.058824968 0.028851774
-0.027858503 0.052460726 -0.028679421 -0.06651443 -0.015598808 -0.043025687 -0.027337663 -0.08432977
00000000: b3ac 8e3d a464 a23d 0d36 61bc c5e7 a63d
00000010: bb65 9abc 041d 923c 6942 30bd 7a9e 543d
00000020: 8993 9f3d 06cd 84bd 6157 9d3d 9684 873c
00000030: 1bbd 853d f56e 443c 1a92 2e3d 6377 4cbc
00000040: 958b 8b3d e70c 563c 9c03 29bd ec90 b83c
00000050: f2cd 26bd 3ad4 29bc 860b 13bd 7a2a 703d
00000060: 2ae4 8ebd 50e7 26bd 0c76 ccbc 13af 59bd
00000070: bc1c 743c e977 a4bd 0fce ae3d 6e4c 8fbd
00000080: 2be6 973d 4a7c b13c fd19 ebbc 9fc2 5f3d
00000090: 6cbd 443c b1d9 8d3d 2086 f03b 8d7f efbc
000000a0: 52fc b63c 449a d3bc 46ce 0f3d 00e0 9d3d
000000b0: 40e3 483d 1ff1 22bd a764 4b3d baee 783c
000000c0: b6d9 333d ae88 60bd b8ee b6bd 622f 13bd
000000d0: ddb3 8ebd 76c8 913d ddac bd3c ff1c 0d3d
000000e0: 0905 d43c 5639 c7ba 345a 8a3d 8592 84bd
000000f0: 9188 c63b 4951 81bd 9d61 e33c aae9 efbc
00000100: dce7 a33c e415 d7bc b1a2 873d 2bcd 74bd
00000110: 2fc9 5ebd 48d0 5fbd f341 9f3d 50b7 df3c
00000120: 9d2f ae3d 1664 95bd 7b8c b3bd 7b9f 8dbd
00000130: 1a8a 73bd e4a3 123d 26a3 013d d369 963d
00000140: 49f7 3abd 58ce 76bd fe16 403d 7056 12bd
00000150: daba 5b3d f4d2 abbc 4e1a 4f3d 6fa5 8cbd
00000160: e6b3 36bd 10c1 dc3c 5013 993c 209c b8bc
00000170: dacc 573d 021e 763d 3945 83bd eb47 41bd
00000180: a5c0 a53d c653 f4bc 4059 00bd 4127 afbd
00000190: 7736 18bd 0456 113d db3c d23a de2f 50bd
000001a0: 20e0 073b 4a4d 77bd 8293 99bd 755c 47bd
000001b0: 8e3f a1bd d2be 68bd d7c8 b33d 94c2 883c
000001c0: a821 df3c 7ad5 a8bd 0bc7 6dbd 6c03 f1bc
000001d0: 1873 623c 6448 9fbd 22fe 1bbd bdbd 58bd
000001e0: 006c 8039 3bb7 06bd b0b3 c8bb 0254 75bd
000001f0: 6880 78bd c936 53bd 8ed9 f7bc 06e0 8ebd
00000200: 7dc7 973d 0cb4 8fbc 9bbf 9b3d 089c e13c
00000210: 6049 99bd 228b 7a3d e439 c7bc 63c7 0abd
00000220: 4142 96bd 59f6 b3bd 8c2a cf3c 942b 9ebc
00000230: 7aba 0a3d 4fb8 95bd df64 863d bfe0 84bd
00000240: 0029 5fbc 3bc5 a93c 99dc 433d 17ce 953d
00000250: ba3e a93d 52dc 8bbd 6b9f c83c f17a 13bd
00000260: 83eb fdbb 432b 83bd f5be a93d 1c40 81bd
00000270: 925e 483d f36f 033d 3132 f23c cb0c 3cbd
00000280: f942 a93d 3829 ac3c e90b 643c 6bbe 99bd
00000290: a9b5 213d 6747 3abc dcbe 1fbd 3444 9e3d
000002a0: 9078 ab3c 0e56 42bd b10d 35bd d465 7ebb
000002b0: e976 503d c76c acbc 0e08 48bd 6dc8 e9bc
000002c0: e4c0 82bd 09b6 0a3d ce41 8f3d 9ccd a6bd
000002d0: 533e bc3c c6d6 3d3d 03da 9c3c b5d2 f6bc
000002e0: b190 453d da03 453d b08e 143d cdd1 6cbc
000002f0: 910d b3bc 07af 293c 1501 6bbc bc83 dbbc
00000300: 49cf 663d 28c4 9d3d 4011 a6bb cb5e a1bc
00000310: d965 f93a 29ac c4bb 288c cf3c 2203 c63c
00000320: b6c5 a6bd 3c68 05bd 24fb 943d 8889 fc3c
00000330: d7f1 b0bb 5b3b 58bd 3d29 56bd 44aa 9ebd
00000340: 25f0 e6bc eeef ff3c 6ac5 653d 4c03 2c3d
00000350: bcbd 9dbd c894 51bd 7e34 4fbc d8d5 af3d
00000360: a4c5 343c be45 cfbc 4417 0a3d 9a30 15bd
00000370: 6fc9 75bd 3ce9 813d edb2 2dbd 0a3b 9abc
00000380: 7c93 b6bd 69b8 5f3d 77be 813d f6f1 f53c
00000390: d5be 82bd 62fe b8bd 3621 94bd a8be 853d
000003a0: 94f7 293d 15f6 973d 8e60 2d3d b6d2 913c
000003b0: 0266 c5bb d574 91bd df7c a6bd a845 aebd
000003c0: 1f28 0a3d 38ab 3bbd c7cd a5bc 21f5 59bd
000003d0: 89bf 90bc 5a42 81bd 73f2 70bd 8e5a ec3c
000003e0: 8437 e4bc 0fe1 563d 1bf1 eabc b838 88bd
000003f0: 2592 7fbc b43b 30bd 3cf3 dfbc 16b5 acbd

lstm.weight_hh_l0 f4 [512, 128]
0.0042594457 -0.0019670697 -0.059198033 -0.055054918 0.044733204 -0.04015606 0.039744575 -0.010732237
0.06991452 -0.0070365723 0.06466454 0.012636552 -0.04326567 0.00090792944 -0.038819328 0.005842587
-0.051363472 0.0006363472 -0.014678954 -0.03876603 -0.07051318 -0.025455242 0.069716685 0.034264736
-0.024788277 0.007445249 0.037623305 0.04470602 0.05934563 -0.063996665 -0.028340241 0.069413826
0.009160894 -0.064135656 -0.04721018 -0.055801135 -0.08319467 -0.06742029 0.08001023 -0.025759032
0.07457599 -0.09285848 0.03649428 0.03276004 -0.084090546 -0.02608171 0.015997935 -0.08518722
0.03569487 0.066133656 -0.07056042 -0.026637878 0.078096025 -0.014208761 -0.039510913 0.026969334
-0.059009977 0.028103147 -0.055567496 0.03684776 -0.044365507 -0.025174152 -0.039138217 0.04352836
-0.067152046 0.038204346 0.061606728 -0.077881664 0.04622384 0.059896953 -0.04105182 0.0027675915
0.015741946 -0.017107343 0.07132828 -0.021827135 -0.034291733 0.01726079 0.061881732 0.06003662
-0.07270105 -0.035996754 -0.023612551 -0.032712813 -0.032733615 -0.03550551 -0.036749557 -0.032464262
-0.06740763 0.029079635 0.034006987 -0.03723406 0.085984476 0.027533213 -0.08122479 0.038640555
0.021516152 0.09008199 -0.010562103 -0.050979756 0.06643664 -0.08120493 0.050505247 -0.09008244
-0.03130139 -0.0077470215 -0.06803375 -0.034218915 -0.020939056 -0.0069753 0.014665053 -0.055195197
0.07905111 0.00022657943 0.026154874 0.015443776 -0.0644765 -0.008853802 -0.07175864 0.09964152
-0.028395751 -0.09708718 0.0124422945 -0.07297309 -0.061532855 -0.06609036 0.002029335 0.04333635
-0.09034585 -0.004520834 -0.03465737 -0.04996651 0.03592725 0.048707202 0.010906992 -0.019439172
0.018965324 -0.047538623 0.008671656 0.037300684 -0.008392949 0.096745744 0.07755418 0.039986487
-0.013260697 -0.026982399 0.023818094 0.021192584 -0.07227893 -0.089850165 -0.012412548 0.024582356
0.047657114 0.062449828 0.019523894 0.07978345 0.051695816 -0.054227907 0.09441113 -0.049443968
-0.062190976 0.021057153 -0.07083939 0.01353506 -0.007453074 0.038141567 -0.03931402 0.0563131
0.05501697 0.0020142808 0.042453263 -0.0638275 0.04221701 -0.06331184 -0.024683442 -0.0059350687
-0.0102903955 0.06588393 0.006936473 0.077003606 0.019503359 -0.013727867 -0.037225243 -0.023281837
-0.066063374 0.022462692 0.07662564 0.041798852 0.067973085 0.083023034 0.025283823 -0.019305237
-0.030555714 -0.06529263 -0.070643425 0.0052492796 -0.057227917 -0.05125817 0.0061833216 -0.058980554
-0.08194673 -0.058273472 0.043446116 0.015889216 -0.09536549 -0.056467723 0.027151057 0.07911149
0.020528518 0.050169475 -0.015358854 0.05164223 0.04755679 -0.053856585 0.035765234 -0.033797983
0.037215788 -0.08706829 -0.037529413 -0.056563366 -0.025040867 0.0746134 -0.039185874 0.011300053
-0.020007813 0.009489419 -0.045177493 -0.04256308 -0.085635215 -0.0071251825 -0.08187678 -0.07567697
0.091671914 0.02487243 -0.023110135 -0.0481361 0.065080985 0.0087068295 -0.066058636 0.06891169
0.09084718 0.025063967 0.054787286 -0.08061554 0.015098157 0.08391985 -0.09121904 -0.089415185
0.01657153 0.026679598 0.012886985 -0.014754239 0.06875395 0.078794755 -0.09715603 -0.095679194
00000000: d292 8b3b f4e9 00bb a379 72bd 4481 61bd
00000010: 2a3a 373d ae7a 24bd 35cb 223d 44d6 2fbc
00000020: 582f 8f3d 0c93 e6bb d86e 843d 8a09 4f3c
00000030: 5837 31bd 1d02 6e3a 0401 1fbd 2c73 bf3b
00000040: 8162 52bd 8ad0 263a ff7f 70bc 21c9 1ebd
00000050: 3769 90bd 8387 d0bc 9fc7 8e3d 2e59 0c3d
00000060: c910 cbbc 46f7 f33b e51a 1a3d a91d 373d
00000070: 6714 733d af10 83bd cb29 e8bc d628 8e3d
00000080: 9317 163c 8e59 83bd 765f 41bd bb8f 64bd
00000090: f861 aabd a613 8abd 67dc a33d 9b04 d3bc
000000a0: 4cbb 983d 962c bebd 077b 153d 642f 063d
000000b0: aa37 acbd 4fa9 d5bc 1a0e 833c a376 aebd
000000c0: c934 123d 1571 873d fb81 90bd ae37 dabc
000000d0: cff0 9f3d ddcb 68bc 32d6 21bd cbee dc3c
000000e0: 72b4 71bd 9238 e63c be9a 63bd aded 163d
000000f0: 9bb8 35bd 063a cebc 654f 20bd cb4a 323d
00000100: 0387 89bd 297c 1c3d 5657 7c3d 6c80 9fbd
00000110: 3655 3d3d 8256 753d f425 28bd 7b60 353b
00000120: 41f5 803c b324 8cbc 9014 923d d2ce b2bc
00000130: 7d75 0cbd 8066 8d3c b377 7d3d f5e8 753d
00000140: 4ae4 94bd 5571 13bd 1c6f c1bc dffd 05bd
00000150: af13 06bd 3a6e 11bd b486 16bd 3ff9 04bd
00000160: 030d 8abd 6a38 ee3c e94a 0b3d be82 18bd
00000170: a118 b03d 558d e13c 2f59 a6bd 8f45 1e3d
00000180: a442 b03c e87c b83d ac0c 2dbc 26d0 50bd
00000190: ef0f 883d c54e a6bd 97de 4e3d 247d b8bd
000001a0: e335 00bd bada fdbb 4755 8bbd 2229 0cbd
000001b0: 6288 abbc 0f91 e4bb b145 703c 5c14 62bd
000001c0: 8ce5 a13d f495 6d39 bf42 d63c e407 7d3c
000001d0: 410c 84bd 8a0f 11bc 32f6 92bd da10 cc3d
000001e0: 359e e8bc a5d5 c6bd c4da 4b3c ea72 95bd
000001f0: e009 7cbd 625a 87bd 97fe 043b 7581 313d
00000200: 3f07 b9bd 8123 94bb e3f4 0dbd afa9 4cbd
00000210: 7428 133d 3481 473d 3db3 323c e63e 9fbc
00000220: 2b5d 9b3c dcb7 42bd 9013 0e3c 9ac8 183d
00000230: 9482 09bc a222 c63d bad4 9e3d dfc8 233d
00000240: 6543 59bc 310a ddbc 2a1e c33c 129c ad3c
00000250: fa06 94bd 5d03 b8bd 005e 4bbc f060 c93c
00000260: 1b34 433d 64cb 7f3d 93f0 9f3c 8165 a33d
00000270: febe 533d 151e 5ebd 9f5a c13d c285 4abd
00000280: f7bb 7ebd 0d80 ac3c 3e14 91bd 28c2 5d3c
00000290: eb38 f4bb 553a 1c3d bd07 21bd 91a8 663d
000002a0: 7959 613d 0602 043b 79e3 2d3d feb7 82bd
000002b0: beeb 2c3d a3a9 81bd ee34 cabc f77a c2bb
000002c0: 0c99 28bc 27ee 863d 5a4b e33b 11b4 9d3d
000002d0: 82c5 9f3c d9ea 60bc 7f79 18bd 8db9 bebc
000002e0: 3c4c 87bd ae03 b83c e7ed 9c3d 4635 2b3d
000002f0: 7935 8b3d fb07 aa3d 0520 cf3c 0426 9ebc
00000300: fa4f fabc 24b8 85bd 80ad 90bd 2602 ac3b
00000310: d267 6abd 16f4 51bd 769d ca3b 9895 71bd
00000320: b0d3 a7bd 2ab0 6ebd 8ef4 313d 1a2a 823c
00000330: fb4e c3bd b34a 67bd e56b de3c 3405 a23d
00000340: 6c2b a83c 827e 4d3d b4a3 7bbc ce86 533d
00000350: e9ca 423d b998 5cbd 917e 123d c16f 0abd
00000360: 956f 183d dc50 b2bd 71b8 19bd fdae 67bd
00000370: 8122 cdbc e9ce 983d 5e81 20bd dc23 393c
00000380: 6de7 a3bc 8279 1b3c 090c 39bd a056 2ebd
00000390: 8461 afbd 5d7a e9bb 03af a7bd 87fc 9abd
000003a0: 7cbe bb3d 44c1 cb3c 7751 bdbc 5c2a 45bd
000003b0: 2e49 853d 17a7 0e3c c049 87bd 9221 8d3d
000003c0: 160e ba3d f352 cd3c a268 603d c319 a5bd
000003d0: 435e 773c 2cde ab3d 0cd1 babd 4f1f b7bd
000003e0: 04c1 873c 2c8f da3c ef23 533c c3bb 71bc
000003f0: dfce 8c3d 255f a13d bef9 c6bd 74f3 c3bd

lstm.bias_ih_l0 f4 [512]
-0.047948156 -0.100145124 -0.0022768015 -0.057697926 0.044817176 -0.019648114 -0.022014251 0.103928395
-0.075237915 -0.00064355717 0.034098696 0.08981417 -0.035959184 -0.03790097 0.057760444 -0.057119828
-0.052528992 0.065326534 -0.01172487 -0.052404754 0.078895144 0.03006749 -0.049248885 0.066183746
-0.07087088 0.056778856 0.025143817 0.057826072 0.0015968508 -0.036947824 0.0907241 -0.073397234
-0.016398296 0.09336848 0.009548362 -0.018935902 -0.03196494 -0.02270096 -0.027445382 0.07643161
-0.036909554 0.072330795 0.0256132 -0.03579769 -0.06705764 0.005068932 -0.027612908 0.057404425
0.06864164 -0.03380029 0.07989168 0.01551624 0.07309474 0.05663103 -0.029154742 0.013324622
-0.06349282 0.036748745 0.016008304 -0.030214032 0.025920585 0.082849585 -0.040695477 -0.06855892
-0.054206286 -0.07558708 -0.058038227 0.07637975 0.031708222 0.023787243 -0.0037105111 0.00077641715
0.065216295 -0.05358863 -0.031838156 0.060940254 -0.009225933 0.085641 0.071502134 0.062379066
0.10001952 -0.0802369 0.08661264 0.10111652 -0.047339685 0.06795189 -0.036711138 -0.051463816
-0.018714456 0.04556628 -0.012316775 -0.058150437 0.018137405 0.06609294 0.08032379 -0.072720625
0.07183732 0.060228594 -0.0025747328 0.09139523 0.012707857 -0.06838797 -0.050050676 -0.057100687
0.07966151 -0.08155963 -0.04321852 0.010150342 0.012277837 -0.010720201 -0.029475147 0.011396652
-0.02009779 0.059653785 -0.06501454 -0.06824911 -0.041932892 0.05965775 0.059062093 0.06973391
0.054413214 -0.0125155635 -0.013809024 0.052412916 0.072327234 -0.06457072 0.006314892 -0.01229181
0.011514111 0.07135398 -0.01889017 0.035796903 -0.08203507 0.04428536 -0.08562998 0.096518174
-0.06473281 -0.07079355 0.032441337 0.052994013 0.021434909 0.054418698 0.051340293 0.08719153
0.032199357 0.0012848581 0.020335466 0.041822016 0.005176057 0.0030030922 -0.054757845 -0.0074490947
-0.058267027 -0.0089466125 0.07135475 0.0006359795 0.027578713 -0.022718238 -0.063584186 0.010535168
-0.054268003 0.04261299 0.025516307 -0.07597489 -0.052031476 0.023093985 -0.05664615 0.08564875
0.097845465 -0.015276589 0.070194766 -0.048574585 0.081942536 0.07626195 0.046891168 -0.07485657
0.061279967 0.01946624 -0.049490463 0.094833046 0.037426196 0.00080760143 0.07832854 -0.03903855
-0.07196051 0.06221661 0.0062716138 -0.04856004 0.010289681 0.08384554 0.015984492 0.045587517
0.03911651 0.042615645 -0.068902485 -0.062127877 0.06771107 0.041155577 0.075211264 -0.02340998
-0.019103926 -0.00645486 0.040228482 0.0049164356 0.022826856 0.046781532 0.0009737947 -0.012095194
-0.0032283622 0.06857852 0.031097267 0.007474411 0.080412924 0.009417578 -0.011365029 -0.04868173
0.070830084 0.028343901 0.030977828 -0.0010965097 0.023799304 0.0012536949 0.011785044 0.058121413
0.021906845 0.07640482 -0.0002561679 -0.049161956 0.024259945 0.08579761 -0.07409152 -0.07786183
0.00045127783 0.06855591 0.017220248 -0.0065677874 0.07086655 0.08330532 -0.009224807 -0.016823249
0.03112135 0.0013717471 -0.0027378714 0.045654945 0.07989629 0.050892305 0.09362164 0.03404499
0.018094502 0.06353347 -0.016860083 -0.04275056 -0.06424194 -0.040843964 -0.004900943 0.055433813
00000000: 4965 44bd e318 cdbd 6436 15bb a954 6cbd
00000010: 3792 373d 15f5 a0bc 3b57 b4bc 69d8 d43d
00000020: 5616 9abd 64b4 28ba 13ab 0b3d 7ef0 b73d
00000030: f049 13bd 0c3e 1bbd 3796 6c3d 7bf6 69bd
00000040: a428 57bd ebc9 853d ab19 40bc 5ea6 56bd
00000050: c793 a13d 1950 f63c 33b9 49bd 588b 873d
00000060: c024 91bd f290 683d 68fa cd3c 08db 6c3d
00000070: 6c4d d13a 9a56 17bd 8fcd b93d 4a51 96bd
00000080: b855 86bc f937 bf3d bc70 1c3c 771f 9bbc
00000090: abed 02bd 5df7 b9bc 23d5 e0bc 2d88 9c3d
000000a0: 792e 17bd 2b22 943d c6d2 d13c 99a0 12bd
000000b0: 8455 89bd 4919 a63b 7734 e2bc e720 6b3d
000000c0: fd93 8c3d 2c72 0abd 409e a33d d437 7e3c
000000d0: b2b2 953d f0f5 673d edd5 eebc 844f 5a3c
000000e0: 8608 82bd da85 163d d923 833c 6b83 f7bc
000000f0: 6857 d43c 0bad a93d 4db0 26bd 9e68 8cbd
00000100: 6907 5ebd 66cd 9abd 7eb9 6dbd fd6c 9c3d
00000110: 7be0 013d 77dd c23c 0c2c 73bb 7988 4b3a
00000120: 1f90 853d c07f 5bbd ba68 02bd 7d9c 793d
00000130: 5e28 17bc 8c64 af3d b66f 923d 3181 7f3d
00000140: 09d7 cc3d 3e53 a4bd f861 b13d 2e16 cf3d
00000150: 42e7 41bd 5c2a 8b3d 6b5e 16bd b9cb 52bd
00000160: 0f4f 99bc b5a3 3a3d 4ccc 49bc 272f 6ebd
00000170: e594 943c bc5b 873d cd80 a43d 8dee 94bd
00000180: 721f 933d 42b2 763d d9bc 28bb 6c2d bb3d
00000190: 9e34 503c fe0e 8cbd f001 4dbd 69e2 69bd
000001a0: 9325 a33d bc08 a7bd e705 31bd 9f4d 263c
000001b0: fb28 493c c8a3 2fbc dd75 f1bc 06b9 3a3c
000001c0: 1fa4 a4bc 8757 743d 5826 85bd 30c6 8bbd
000001d0: d3c1 2bbd af5b 743d 18eb 713d a7d0 8e3d
000001e0: 64e0 5e3d 140e 4dbc 3f3f 62bc edae 563d
000001f0: 4d20 943d a73d 84bd 27ed ce3b 9663 49bc
00000200: afa5 3c3c 0922 923d 8fbf 9abc c69f 123d
00000210: 0102 a8bd 9164 353d c55e afbd 52ab c53d
00000220: a392 84bd 35fc 90bd 35e1 043d 4010 593d
00000230: 4398 af3c 24e6 5e3d 334a 523d 7991 b23d
00000240: 79e3 033d af68 a83a 9096 a63c 904d 2b3d
00000250: ea9b a93b 87cf 443b c349 60bd 8917 f4bb
00000260: 68a9 6ebd d094 12bc 7022 923d ddb7 263a
00000270: c1ec e13c 991b babc 6d38 82bd b39b 2c3c
00000280: 2048 5ebd f58a 2e3d 9307 d13c b998 9bbd
00000290: f51e 55bd 992f bd3c cb05 68bd 9d68 af3d
000002a0: 3463 c83d a94a 7abc 46c2 8f3d 25f6 46bd
000002b0: 7dd1 a73d 3a2f 9c3d f410 403d 674e 99bd
000002c0: b400 7b3d aa77 9f3c 83b6 4abd d437 c23d
000002d0: 364c 193d 37b5 533a b76a a03d e3e6 1fbd
000002e0: 0860 93bd d8d6 7e3d 1c82 cd3b e4e6 46bd
000002f0: 0d96 283c 36b7 ab3d e9f1 823c fab9 3a3d
00000300: a238 203d be8d 2e3d bf1c 8dbd cd79 7ebd
00000310: 1aac 8a3d c092 283d 5d08 9a3d 49c6 bfbc
00000320: d67f 9cbc 4a83 d3bb 9fc6 243d 0d1a a13b
00000330: 63ff ba3c fe9d 3f3d 4246 7f3a ec2a 46bc
00000340: ee92 53bb e572 8c3d b2bf fe3c e7eb f43b
00000350: 88af a43d 2f4c 1a3c 6334 3abc 7e66 47bd
00000360: 5d0f 913d 7831 e83c 37c5 fd3c c3b8 8fba
00000370: c2f6 c23c 0553 a43a 0f16 413c b810 6e3d
00000380: fc75 b33c 217a 9c3d 464e 86b9 0c5e 49bd
00000390: cbbc c63c a8b6 af3d 4bbd 97bd 0676 9fbd
000003a0: 7c99 ec39 0a67 8c3d 7a11 8d3c 9836 d7bb
000003b0: 7b22 913d fb9b aa3d a523 17bc e9d0 89bc
000003c0: 34f2 fe3c 32cc b33a dc6d 33bb ae00 3b3d
000003d0: aba0 a33d 7374 503d b4bc bf3d c272 0b3d
000003e0: ec3a 943c d61d 823d 281e 8abc 361b 2fbd
000003f0: 4791 83bd 004c 27bd 1798 a0bb 910e 633d

lstm.bias_hh_l0 f4 [512]
0.029305412 0.023825185 -0.054261897 0.03801024 -0.014416255 0.059913337 -0.007441692 -0.036599435
-0.0045654643 0.047770165 0.10059014 -0.07464997 0.09502767 0.044269398 0.0035459464 -0.059492186
-0.083893605 0.074002855 0.030377066 0.07501077 -0.062388122 -0.038734205 -0.03371814 0.085221015
-0.07900668 -0.07528882 0.016364979 0.013781538 -0.061070304 0.036671534 -0.0485646 -0.025457658
0.026907511 0.098788984 0.06956307 0.0058484334 0.051245946 -0.05307779 0.009321728 -0.053147856
-0.04747322 0.046504486 -0.019964099 -0.06197167 -0.08197554 0.06662066 0.0649266 0.07686522
0.077641025 0.011949865 -0.023692014 0.010348085 0.0065440685 0.040891632 0.017382776 -0.0687236
-0.03274687 0.0642352 0.08337861 -0.024340345 -0.061010674 0.085748695 0.03810638 -0.0059904302
-0.015025979 -0.037066735 0.06335108 0.073835626 0.0014597891 0.008030097 -0.07627235 0.008724636
-0.07304923 0.041354373 0.07927917 0.010090317 -0.07241088 0.001315248 0.03214035 -0.022094864
-0.019070936 0.064772435 0.061115578 -0.052495565 0.056552622 0.035057206 -0.0025076815 0.056978416
0.06695431 0.04950317 -0.059225123 -0.07834465 0.081950925 -0.065079816 -0.034367356 0.05001771
-0.017703278 -0.06699292 -0.04291907 0.07929318 -0.0446603 -0.05425414 0.03646994 -0.06002621
0.033142954 0.049777396 -0.032813296 -0.039352287 0.062271547 -0.056573924 -0.07173132 -0.058184557
-0.043153338 -0.03380904 0.07469917 0.054915 0.099229224 0.0639367 0.010238039 0.0031213225
-0.029231455 0.044014864 -0.043303505 -0.07124804 -0.016057782 0.034185942 0.02278847 0.038820073
0.03820424 -0.07812668 -0.027020222 -0.007435151 -0.054730352 0.032026034 -0.027910708 -0.019538563
-0.02499011 -0.03940865 0.036697555 0.019141352 -0.04233761 -0.012290335 0.0980126 0.0069968514
0.0102646835 0.0032916488 -0.034428302 -0.045493 -0.07457204 0.035300426 0.0048558093 -0.052992225
-0.058158994 -0.035392698 -0.052313328 0.08645968 0.0015845496 -0.017660797 -0.06341714 0.014265898
-0.06731419 0.052012693 -0.020818958 -0.04248994 0.07024824 0.04715146 0.0040288973 0.03464517
-0.009676722 0.04055512 0.033503912 -0.04104821 0.039619505 -0.063866 -0.032137223 -0.061070543
-0.06540422 0.08757191 0.06524477 0.0041356934 -0.0045645377 -0.014815753 0.06319769 -0.0177435
0.0590134 -0.024154661 -0.07684933 -0.031052152 0.083180144 -0.068774536 -0.080985 0.030333437
-0.028082896 0.03823004 0.011010875 0.06327547 0.03571899 0.0020430076 -0.015289818 -0.06873198
-0.031001247 0.05950233 0.037155937 -0.0714663 0.019486686 -0.072175376 0.061380222 0.0681566
0.07558987 0.07789064 0.045036443 0.08112829 0.07854073 -0.06719264 0.07392839 0.055057935
0.041699026 0.034425076 0.05005446 0.0024880709 -0.02214465 -0.033309035 0.09664564 -0.056687046
0.07032385 0.042860482 -0.013204251 -0.06289823 -0.03884691 -0.060711987 0.03116037 0.024686124
-0.015831463 0.029655838 0.09196462 -0.016310198 -0.014175988 0.079109885 0.0128948195 -0.015817055
-0.05279216 -0.033897765 0.01758432 0.01379608 0.05427686 -0.005703134 -0.05893041 -0.052555844
0.0041102003 0.072161876 -0.026083497 -0.01945222 0.061042048 0.013826469 0.00056395086 -0.045123912
00000000: e711 f03c 092d c33c b941 5ebd a0b0 1b3d
00000010: 2832 6cbc b067 753d 70d9 f3bb 4ae9 15bd
00000020: e499 95bb a6aa 433d 3402 ce3d 15e2 98bd
00000030: de9d c23d d453 353d 1c63 683b 14ae 73bd
00000040: 69d0 abbd cf8e 973d 53d9 f83c 3f9f 993d
00000050: b08a 7fbd c2a7 1ebd 081c 0abd 5b88 ae3d
00000060: 41ce a1bd 0631 9abd d90f 863c f6cb 613c
00000070: db24 7abd e434 163d adeb 46bd 948c d0bc
00000080: 246d dc3c e151 ca3d 1577 8e3d 37a4 bf3b
00000090: 45e7 513d 1968 59bd 29ba 183c 91b1 59bd
000000a0: 4773 42bd 7d7b 3e3d c08b a3bc 01d6 7dbd
000000b0: cbe2 a7bd 6a70 883d 3df8 843d 836b 9d3d
000000c0: 4202 9f3d 5ec9 433c c115 c2bc 048b 293c
000000d0: a06f d63b fc7d 273d 5366 8e3c f5be 8cbd
000000e0: 9521 06bd bf8d 833d 68c2 aa3d 6765 c7bc
000000f0: 54e6 79bd 039d af3d 6f15 1c3d 5f4b c4bb
00000100: 862f 76bc 4ad3 17bd 36be 813d 2237 973d
00000110: 6556 bf3a ab90 033c ae34 9cbd c7f1 0e3c
00000120: d69a 95bd 3463 293d 1e5d a23d db51 253c
00000130: 284c 94bd 6664 ac3a 9aa5 033d 4a00 b5bc
00000140: a73a 9cbc 69a7 843d 5454 7a3d 9705 57bd
00000150: b9a3 673d 2598 0f3d ea57 24bb 3362 693d
00000160: 571f 893d d6c3 4a3d 0b96 72bd 2973 a0bd
00000170: e3d5 a73d 9148 85bd c9c4 0cbd 5fdf 4c3d
00000180: 7706 91bc 9633 89bd e8cb 2fbd 7664 a23d
00000190: b8ed 36bd 9739 5ebd 8161 153d 0bde 75bd
000001a0: e8c0 073d 62e3 4b3d 3c67 06bd dd2f 21bd
000001b0: 7310 7f3d 0fba 67bd dfe7 92bd ee52 6ebd
000001c0: 8ec1 30bd 597b 0abd e1fb 983d 8dee 603d
000001d0: b138 cb3d 3ff1 823d 73bd 273c 1a8f 4c3b
000001e0: ce76 efbc ee48 343d 045f 31bd 7eea 91bd
000001f0: 9c8b 83bc 8f06 0c3d e3ae ba3c cc01 1f3d
00000200: 0d7c 1c3d e100 a0bd 8359 ddbc 91a2 f3bb
00000210: ef2c 60bd bb2d 033d ffa4 e4bc 560f a0bc
00000220: 0fb8 ccbc f76a 21bd 2d50 163d 53ce 9c3c
00000230: 346a 2dbd 675d 49bc d4ba c83d d845 e53b
00000240: 342d 283c b4b8 573b b104 0dbd de56 3abd
00000250: 3ab9 98bd 2e97 103d 7b1d 9f3b 600e 59bd
00000260: 2038 6ebd eff7 10bd 8046 56bd c611 b13d
00000270: a9b0 cf3a 60ad 90bc d8e0 81bd 83bb 693c
00000280: 06dc 89bd 430b 553d 858c aabc ee09 2ebd
00000290: 4fde 8f3d e421 413d d704 843b 18e8 0d3d
000002a0: 1d8b 1ebc 201d 263d 663b 093d 2b22 28bd
000002b0: 1048 223d 2dcc 82bd 52a2 03bd 1b25 7abd
000002c0: a6f2 85bd e758 b33d 0d9f 853d b684 873b
000002d0: 1e92 95bb c6bd 72bc ca6d 813d d15a 91bc
000002e0: 09b8 713d ffdf c5bc 2e63 9dbd 1561 febc
000002f0: 5a5a aa3d aad9 8cbd 77db a5bd d47d f83c
00000300: 1a0e e6bc 1a97 1c3d f566 343c 9296 813d
00000310: 134e 123d fbe3 053b 2582 7abc 5ac3 8cbd
00000320: 54f6 fdbc b7b8 733d d330 183d ec5c 92bd
00000330: 8ba2 9f3c afd0 93bd d469 7b3d b095 8b3d
00000340: ddce 9a3d 2185 9f3d 2278 383d 9726 a63d
00000350: f6d9 a03d 4b9c 89bd c567 973d 6e84 613d
00000360: 99cc 2a3d 4f01 0d3d e805 4d3d e70e 233b
00000370: b268 b5bc 0e6f 08bd 26ee c53d ad30 68bd
00000380: f305 903d 798e 2f3d a556 58bc cad0 80bd
00000390: f01d 1fbd 22ad 78bd 0844 ff3c 8e3a ca3c
000003a0: fcb0 81bc cdf0 f23c f257 bc3d f79c 85bc
000003b0: 6742 68bc 5d04 a23d cb44 533c c592 81bc
000003c0: 983c 58bd 62d8 0abd fe0c 903c f408 623c
000003d0: 6a51 5e3d 5be1 babb 0361 71bd cc44 57bd
000003e0: dcae 863b 9bc9 933d 0fad d5bc 435a 9fbc
000003f0: 3a07 7a3d 6a88 623c 1ad6 133a dad3 38bd

lstm.weight_ih_l1 f4 [512, 128]
0.020474508 0.018826492 0.024375126 0.009157974 -0.0636356 -0.08517582 -0.052767213 0.042453643
0.030386193 0.08172816 0.027564282 0.036378447 -0.029461171 -0.06739215 -0.07822327 0.07031809
-0.06350682 -0.08850767 0.007087936 -0.089931756 -0.077266514 -0.039873876 -0.048041943 -0.089621216
-0.0029081532 0.06841905 -0.027049977 0.0041124634 0.05248744 0.013708864 -0.06623229 -0.038832746
-0.054864902 -0.01446864 -0.036208205 -0.014768109 0.068966605 -0.049495626 0.028331188 -0.05140001
-0.02404417 -0.053056724 0.07484362 -0.027390167 0.038540393 0.038889658 0.06865693 3.34163e-05
0.02168803 0.08792816 -0.0344193 -0.058086786 -0.004058913 -0.008476951 -0.053244404 -0.004442028
0.07127471 -0.07071319 0.0803268 -0.065624006 -0.06385962 -0.07722632 -0.0034357249 -0.02868487
-0.071982995 0.04734265 0.015954167 -0.030002216 0.047225308 0.060327597 -0.062397726 0.0822149
-0.040809523 -0.067095056 -0.032095294 -0.01649203 -0.017621461 0.008873028 -0.0072711706 -0.00024560752
-0.0530471 0.089905165 -0.033153437 -0.08266753 0.05705706 0.04574521 0.034352895 -0.042115517
0.021490872 0.029559946 -0.0896948 -0.042935945 -0.03203888 0.08940421 0.07801503 -0.03696592
0.058793012 -0.027091354 0.011933478 -0.07658262 0.012106605 0.034359753 -0.06758454 -0.0006664118
-0.06219793 0.06447865 -0.005612135 0.0648171 0.09434755 -0.021040656 -0.0722889 0.0563183
-0.036592554 -0.015142391 0.070549026 -0.065590724 0.008748629 -0.004620788 0.078499295 0.012704917
0.02308678 0.05805043 0.016443064 -0.039885167 0.072376065 0.05400818 0.019640908 0.02809524
0.05873877 0.07279076 0.084554404 0.05111408 -0.05057225 -0.07039679 0.049585387 0.06734028
-0.03674071 -0.021493651 -0.013384223 -0.050774027 -0.031144215 0.029643992 0.02308653 0.03457696
0.00069433975 -0.081464685 -0.036598206 0.005685357 0.07759751 0.011806002 0.055857513 -0.082019135
0.075529866 0.093999974 0.07087096 -0.06645451 -0.09057871 1.7372782e-05 -0.002187143 0.033588648
0.0154957725 0.046870492 -0.030907799 -0.066662356 -0.011507328 -0.048679296 -0.046458296 0.02092959
-0.030033626 0.07174169 -0.06669621 -0.012859959 0.019512419 0.07761976 0.026843704 0.05319546
-0.01617301 0.06558948 0.0098317005 0.08311549 0.003003183 -0.008531237 0.058289412 0.030908942
-0.036106627 -0.050853223 0.040153734 0.06252141 -0.002934868 0.07381295 -0.015127928 -0.076991424
0.078881316 -0.027332302 0.06304872 0.037365105 -0.089918114 0.048793722 -0.06759015 0.047911335
-0.08997009 0.05570297 0.042168863 -0.023670102 -0.08304677 0.07331896 0.0027908944 -0.057124913
0.022874905 0.06190445 0.07978718 -0.06897549 0.002743518 0.023548761 -0.09741369 0.028545203
0.074620575 -0.06323752 0.09497522 -0.08322418 -0.0772893 -0.032591656 -0.033172686 -0.028820548
-0.043209452 -0.09011046 -0.021144483 0.041289337 0.06897533 0.05859223 0.031276282 0.025195878
0.043797873 0.0002757917 0.08131247 -0.0040897583 0.060709067 -0.049303442 -0.06365445 0.03978632
0.07487779 -0.04092303 -0.0004750922 0.0681943 -0.07262623 0.029979313 -0.059396114 -0.07575783
0.035346337 0.05367498 0.016909415 0.027963923 -0.020623941 -0.036854994 0.0735009 0.06943623
00000000: 28ba a73c 043a 9a3c 58ae c73c 540b 163c
00000010: 6253 82bd a970 aebd 6f22 58bd dfe3 2d3d
00000020: 77ec f83c 1861 a73d 7dce e13c 9101 153d
00000030: 8e58 f1bc e504 8abd 8633 a0bd ee02 903d
00000040: dd0f 82bd 8243 b5bd eb41 e83b 242e b8bd
00000050: e83d 9ebd ca52 23bd a1c7 44bd 548b b7bd
00000060: b796 3ebb 491f 8c3d ea97 ddbc d8c1 863b
00000070: 12fd 563d 259b 603c cba4 87bd 160f 1fbd
00000080: 05ba 60bd e00d 6dbc 0e4f 14bd f0f5 71bc
00000090: 5d3e 8d3d edbb 4abd cf16 e83c d188 52bd
000000a0: 47f8 c4bc 0252 59bd 9d47 993d 5861 e0bc
000000b0: 88dc 1d3d c34a 1f3d 019c 8c3d 7b28 0c38
000000c0: 18ab b13c ae13 b43d 40fb 0cbd 69ec 6dbd
000000d0: a100 85bb e9e2 0abc ce16 5abd 6e8e 91bb
000000e0: 7af8 913d 14d2 90bd 6182 a43d e165 86bd
000000f0: d5c8 82bd d528 9ebd e629 61bb 88fc eabc
00000100: d26b 93bd 5eea 413d 50b2 823c 35c7 f5bc
00000110: 536f 413d 121a 773d c294 7fbd 4960 a83d
00000120: e327 27bd 2269 89bd 5b76 03bd 4b1a 87bc
00000130: e25a 90bc 2d60 113c 0043 eebb e2c4 80b9
00000140: ea47 59bd 3320 b83d e6cb 07bd 984d a9bd
00000150: aab4 693d 545f 3b3d 9fb5 0c3d 5281 2cbd
00000160: a00d b03c b327 f23c e8b1 b7bd 9add 2fbd
00000170: 333b 03bd 8e19 b73d 58c6 9f3d 9469 17bd
00000180: f1d0 703d b0ee ddbc a284 433c 59d7 9cbd
00000190: c85a 463c d0bc 0c3d c369 8abd 24b2 2eba
000001a0: 42c3 7ebd 620d 843d 00e6 b7bb d4be 843d
000001b0: 4a39 c13d 745d acbc 340c 94bd 05ae 663d
000001c0: 13e2 15bd cb17 78bc 027c 903d 6e54 86bd
000001d0: 6956 0f3c fb69 97bb 3dc4 a03d 4928 503c
000001e0: 7d20 bd3c 4ac6 6d3d 9bb3 863c a15e 23bd
000001f0: e739 943d ae37 5d3d f8e5 a03c fd27 e63c
00000200: 1198 703d 5213 953d dc2a ad3d ff5c 513d
00000210: d924 4fbd 312c 90bd 0c1a 4b3d b3e9 893d
00000220: 6d7d 16bd 7413 b0bc 8049 5bbc 6df8 4fbd
00000230: 2722 ffbc f5d7 f23c f61f bd3c 92a0 0d3d
00000240: 5a04 363a f5d6 a6bd 00e8 15bd 3b4c ba3b
00000250: 71eb 9e3d f66d 413c d9ca 643d a6f9 a7bd
00000260: 67af 9a3d 0f83 c03d cb24 913d 4d19 88bd
00000270: 5581 b9bd c4bb 9137 2c56 0fbb 4094 093d
00000280: fbe1 7d3c 46fb 3f3d 5a32 fdbc 4686 88bd
00000290: 3b89 3cbc f163 47bd 0e4b 3ebd 8874 ab3c
000002a0: 1409 f6bc 4fed 923d 0698 88bd 94b2 52bc
000002b0: 82d8 9f3c 1cf7 9e3d 54e7 db3c 7ce3 593d
000002c0: 437d 84bc c753 863d 2415 213c 7438 aa3d
000002d0: 0dd1 443b 9ac6 0bbc e1c0 6e3d c034 fd3c
000002e0: 8be4 13bd 784b 50bd 3e78 243d 3a0b 803d
000002f0: ea56 40bb 3e2b 973d 21db 77bc aead 9dbd
00000300: 878c a13d fee7 dfbc b01f 813d 270c 193d
00000310: fd26 b8bd eddb 473d b46c 8abd ad3e 443d
00000320: 3d42 b8bd cc28 643d 42b9 2c3d cde7 c1bc
00000330: 6d14 aabd 4028 963d 70e7 363b d0fb 69bd
00000340: 2764 bb3c 858f 7d3d 7667 a33d 0643 8dbd
00000350: 98cc 333b 55e9 c03c d480 c7bd a1d7 e93c
00000360: acd2 983d ac82 81bd 5e82 c23d 7071 aabd
00000370: da49 9ebd d47e 05bd 15e0 07bd 1219 ecbc
00000380: 65fc 30bd d58b b8bd 3237 adbc 021f 293d
00000390: f042 8d3d 68fe 6f3d 8f1b 003d 9667 ce3c
000003a0: 6665 333d 2398 9039 2787 a63d 6103 86bb
000003b0: 12aa 783d 68f2 49bd 445d 82bd fbf6 223d
000003c0: 8759 993d e89e 27bd cc15 f9b9 74a9 8b3d
000003d0: 10bd 94bd 2d97 f53c 5749 73bd ec26 9bbd
000003e0: 52c7 103d 4cda 5b3d 9d85 8a3c 9914 e53c
000003f0: 8af3 a8bc 43f5 16bd a487 963d 9534 8e3d

lstm.weight_hh_l1 f4 [512, 128]
0.057551783 -0.080353305 -0.07446727 0.03649799 -0.08379214 0.023198148 0.054791916 -0.059434697
-0.018566523 -0.060353663 -0.07480593 0.05748612 -0.02850034 0.021031462 -0.018371465 -0.06596676
-0.02725025 0.05222695 0.04666248 -0.028043093 0.029427366 0.0870233 0.050392486 -5.3625932e-05
0.015834084 0.07287474 -0.033166062 0.06800467 -0.07682835 -0.030749055 0.07825635 0.018128593
-0.086649075 0.02903519 -0.019824719 -0.0036049134 -0.057900805 0.08954821 0.088467 0.054842465
0.061126582 -0.062767364 -0.012705872 0.07932237 -0.010681209 -0.053649016 -0.0113936225 0.07944899
-0.004965842 0.09066469 0.00076746754 -0.0013169165 0.03099369 -0.035429787 0.041272 -0.05042894
-0.058160286 0.0319709 0.038851418 0.01629034 -0.03621712 0.061033577 -0.06309763 -0.05888133
-0.032703727 0.021818686 0.07590883 -0.026597572 -0.051225144 -0.044586055 0.001441374 0.039388347
-0.0038405447 0.03226262 -0.024162546 -0.013854379 -0.033540353 0.09464908 0.026541542 0.013382747
0.07224363 -0.012458117 -0.020391231 -0.060306985 -0.06691655 0.0058525424 0.02016475 0.011061093
-0.049494553 -0.08463076 0.015254962 0.08463129 0.0808636 0.02760319 -0.07977321 -0.07099938
0.020719236 0.06289504 -0.0070422264 0.073510885 -0.06910572 0.027534213 -0.007731787 -0.080277376
0.06830962 -0.0034454598 -0.0775353 0.0005335155 0.057759494 -0.03741236 0.04845067 -0.06804445
0.08124406 0.064979225 0.07447631 0.0022391838 -0.006480704 0.041342393 0.09010687 -0.041572616
0.025512561 0.04563468 -0.0696044 -0.050587058 -0.032038078 0.02262484 6.9017915e-05 0.07793412
-0.060640294 0.047141295 -0.014535954 0.0310712 0.016281297 -0.05503053 0.065449946 0.019797426
-0.07578925 -0.034390885 0.013156157 -0.03591047 -0.07320493 -0.0687143 0.017068444 -0.037421715
-0.04294345 0.0110823335 -0.05330983 0.06619002 -0.0199073 0.047229834 -0.051948693 -0.062380545
0.048707776 -0.016816758 0.06662642 -0.004753489 0.05880298 -0.06935074 -0.01014959 -0.023647368
-0.052219026 0.039880514 0.083142355 -0.021638814 -0.037519492 0.02687359 -0.081558354 -0.0644054
-0.037811927 -0.05337329 -0.039788853 -0.00969411 0.062137734 -0.017624818 0.033430547 0.044464853
-0.0018993343 -0.086376704 -0.009594613 -0.03359913 0.035989232 0.045776352 0.06613168 -0.019431708
-0.06667794 -0.07580674 -0.024932861 0.013548773 -0.057147484 -0.0027301635 0.032920193 -0.0971699
0.069835514 -0.04978991 0.015935775 -0.046517227 -0.022033693 0.07788398 0.06572617 0.0109994
0.049180724 -0.0807636 0.022869918 0.057018906 0.024253726 0.017012436 0.084888436 0.08974735
0.08669187 -0.012096932 -0.06626577 0.074055836 0.062011667 -0.0027216566 0.010437663 -0.092710756
0.046533618 -0.051914584 0.01951281 -0.060517754 0.08029472 0.05323015 0.07809615 0.04075586
-0.0597147 0.0077605643 -0.05291633 0.047114838 -0.059426263 0.07918947 0.058199313 -0.0310665
0.04765289 0.00071699097 -0.029220818 -0.057607852 0.046337653 0.062182967 -0.061379183 0.04508608
0.073988564 -0.029278537 -0.01705463 0.029604029 -0.041781783 -0.069307804 0.07524215 -0.0152041055
0.0896998 -0.014291202 -0.027513014 -0.018007273 -0.058966897 -0.04758167 -0.034154333 0.05945534
00000000: 6bbb 6b3d 4690 a4bd 4c82 98bd eb7e 153d
00000010: 379b abbd 0b0a be3c 7d6d 603d cc71 73bd
00000020: d218 98bc 6735 77bd da33 99bd 9176 6b3d
00000030: 8c79 e9bc 2c4a ac3c c17f 96bc 9519 87bd
00000040: eb3b dfbc edeb 553d 2821 3f3d a1ba e5bc
00000050: a911 f13c 4639 b23d 5a68 4e3d 68ec 60b8
00000060: 7bb6 813c 5a3f 953d 23d9 07bd 0846 8b3d
00000070: 2f58 9dbd 71e5 fbbc dd44 a03d 6a82 943c
00000080: 1275 b1bd 35db ed3c 7367 a2bc 6940 6cbb
00000090: 6529 6dbd 0d65 b73d 302e b53d 7ea2 603d
000000a0: de5f 7a3d 2d8c 80bd 4a2c 50bc c473 a23d
000000b0: 3d00 2fbc 12bf 5bbd 51ac 3abc 27b6 a23d
000000c0: 80b8 a2bb 69ae b93d e02f 493a 639c acba
000000d0: 7be6 fd3c d31e 11bd d40c 293d 948e 4ebd
000000e0: 7b39 6ebd ebf3 023d aa22 1f3d 5273 853c
000000f0: 6758 14bd 58fe 793d 5539 81bd 8d2d 71bd
00000100: 58f4 05bd 1abd b23c 1776 9b3d 27e3 d9bc
00000110: 75d1 51bd de9f 36bd 7cec bc3a ad55 213d
00000120: a6b1 7bbb cf25 043d 88f0 c5bc 7afd 62bc
00000130: 9c61 09bd 60d7 c13d a66d d93c 4f43 5b3c
00000140: 78f4 933d 211d 4cbc 830b a7bc 7504 77bd
00000150: 8b0b 89bd afc6 bf3b 8c30 a53c 9639 353c
00000160: cdba 4abd e452 adbd f3ef 793c 2b53 ad3d
00000170: d19b a53d 1620 e23c 2360 a3bd 1f68 91bd
00000180: 63bb a93c 1dcf 803d 7ac2 e6bb e08c 963d
00000190: 4d87 8dbd 6e8f e13c ee5a fdbb 7768 a4bd
000001a0: eae5 8b3d 39cd 61bb d4ca 9ebd 9edb 0b3a
000001b0: 3895 6c3d b43d 19bd 3674 463d e35a 8bbd
000001c0: 4963 a63d d413 853d 0987 983d 45bf 123b
000001d0: 165c d4bb a456 293d f389 b83d 0c48 2abd
000001e0: b8ff d03c 6eeb 3a3d c08c 8ebd 6034 4fbd
000001f0: 5c3a 03bd ba57 b93c b6bd 9038 ed9b 9f3d
00000200: f561 78bd 3b17 413d 3628 6ebc 0789 fe3c
00000210: 5b60 853c b167 61bd 9f0a 863d 362e a23c
00000220: 6537 9bbd 75dd 0cbd ec8c 573c db16 13bd
00000230: 77ec 95bd 15ba 8cbd 1fd3 8b3c 8347 19bd
00000240: 79e5 2fbd ad92 353c 695b 5abd a28e 873d
00000250: a214 a3bc 1274 413d 27c8 54bd be82 7fbd
00000260: ce81 473d 4cc3 89bc 6f73 883d 28c3 9bbb
00000270: 65db 703d c307 8ebd 774a 26bc 20b8 c1bc
00000280: 9ee3 55bd c059 233d 8a46 aa3d e243 b1bc
00000290: 0aae 19bd 0126 dc3c 1108 a7bd fae6 83bd
000002a0: aee0 1abd f39d 5abd a3f9 22bd 0bd4 1ebc
000002b0: 2384 7e3d ec61 90bc 78ee 083d c720 363d
000002c0: 15f3 f8ba 45e6 b0bd b932 1dbc 3e9f 09bd
000002d0: 7269 133d fc7f 3b3d 0c70 873d 3f2f 9fbc
000002e0: 728e 88bd 9040 9bbd 0040 ccbc acfb 5d3c
000002f0: 7b13 6abd 8bec 32bb 53d7 063d 0301 c7bd
00000300: ec05 8f3d 81f0 4bbd be8b 823c d988 3ebd
00000310: 0180 b4bc a381 9f3d 719b 863d d436 343c
00000320: ba71 493d 6367 a5bd b259 bb3c a88c 693d
00000330: c0af c63c aa5d 8b3c fdd9 ad3d 75cd b73d
00000340: 828b b13d 3632 46bc 59b6 87bd 96aa 973d
00000350: f2ff 7d3d d25d 32bb bb02 2b3c 23df bdbd
00000360: 099a 3e3d 63a4 54bd 54d9 9f3c 77e1 77bd
00000370: 8f71 a43d dc07 5a3d e0f0 9f3d 9eef 263d
00000380: 6797 74bd 554c fe3b cbbe 58bd 7dfb 403d
00000390: f468 73bd 172e a23d 6762 6e3d 2c7f febc
000003a0: ad2f 433d 73f4 3b3a 7f60 efbc 36f6 6bbd
000003b0: 8dcc 3d3d 91b3 7e3d bd68 7bbd 2eac 383d
000003c0: 5187 973d 8bd9 efbc 27b6 8bbc 2684 f23c
000003d0: 6023 2bbd 40f1 8dbd 8e18 9a3d a41a 79bc
000003e0: 87b4 b73d a525 6abc f962 e1bc fd83 93bc
000003f0: 4687 71bd ffe4 42bd 6ae5 0bbd 7187 733d

lstm.bias_ih_l1 f4 [512]
-0.07487387 0.07092278 0.004081683 0.012874172 -0.04136921 0.063292585 0.016483432 -0.022273548
0.0073120533 0.027721932 0.089587994 0.06285378 -0.04087831 0.052070934 -0.015819408 -0.06441722
-0.05411393 -0.0029420971 0.030313795 0.065184616 -0.07897317 -0.053327285 -0.038420077 0.034055084
-0.06427572 -0.00038068485 0.025668118 -0.04023833 -0.053280324 0.023019202 0.020145986 0.05981745
0.025956383 0.020041544 -0.05711137 -0.037679695 0.0034440858 -0.055968393 -0.07009422 0.08217321
0.03768167 -0.07125021 -0.04289843 0.03871525 -0.0339774 0.061165974 -0.041699573 0.058874384
0.031470846 -0.008047639 0.053862717 -0.042135593 -0.07327753 0.09533591 -0.018367598 -0.07181496
0.07773829 0.03702566 0.07501928 0.048116624 -0.0055301115 -0.028474918 0.020667022 -0.008306666
-0.029280977 -0.072937936 0.09358835 0.046152797 0.057649206 0.019495957 0.050401542 -0.031550743
0.009095995 0.079959325 -0.026673963 -0.00017806803 0.07873701 -0.06241937 -0.043349694 0.056518022
-0.035614006 -0.040935982 -0.020800022 -0.04121437 0.040850047 -0.048328523 0.05418181 -0.0762184
-0.0004390939 0.08533521 -0.048180886 -0.046274394 0.002962781 -0.011173682 0.01465767 0.061187204
-0.07467836 0.0034725617 -0.05518881 0.036499597 -0.02592901 0.09578333 -0.037100244 -0.03637083
-0.05935835 -0.063670464 0.08098622 -0.07090459 -0.06104241 0.005286904 -0.025824025 0.00828083
0.08679174 0.067108236 -0.06853684 0.061284736 -0.056280922 0.06386344 0.009924784 -0.0046041105
0.039099347 0.042559713 -0.045103386 0.087501645 0.054602526 0.055691764 -0.041153375 -0.03571598
-0.008012554 0.088407084 -0.052991975 -0.039267477 0.059604682 -0.00025794006 -0.029536394 -0.02899035
-0.060935892 -0.08007318 0.0047924565 0.024118394 0.018124301 -0.019549342 -0.088497184 -0.005586148
-0.045035403 0.019990876 0.042771753 0.05677925 -0.03975968 -0.04843993 -0.03311625 0.066643916
0.067935824 -0.08482073 0.03109895 -0.0053502447 -0.07383234 -0.00012825766 -0.020086057 0.0117995255
-0.026144162 -0.07891508 0.017685676 -0.038797952 -0.067663945 -0.039462093 -0.027665665 -0.039172348
-0.045784887 -0.04958345 -0.05993457 -0.0015696019 -0.03760289 -0.074851006 -0.017366568 -0.075874075
0.06898888 -0.03987368 0.03849897 0.090525694 0.058232404 0.04766136 0.093024656 0.058625165
0.07644084 -0.060898356 0.036624122 0.081928626 -0.015709342 -0.054142665 0.004183124 0.032405496
0.095936626 -0.053239692 -0.007238322 -0.042324208 0.0003923135 -0.069830984 0.07553563 -0.0075684707
0.0880907 0.046817373 -0.039469235 -0.016947344 0.092181936 0.037959814 -0.024277389 0.0064265532
-0.02158012 -0.0382081 -0.036197316 -0.07287441 0.04896459 -0.066452295 -0.048333738 0.061246544
0.008889371 -0.011008952 -0.001682376 0.028357476 0.0684091 -0.009172145 -0.0062918467 -0.065818615
0.045602184 0.07189321 -0.051720817 0.021110872 -0.0010662654 0.06851806 0.049661335 -0.019840498
0.0537987 -0.04447133 0.054405686 0.09615691 0.086499676 0.023347935 0.073464885 0.0046927123
0.095109284 -0.051919393 -0.00025431518 -0.07069421 0.06854608 -0.033416405 -0.020582192 0.041695282
-0.003210608 0.07717063 -0.051105462 -0.027185814 -0.053639017 -0.03890379 -0.03330259 -0.053502645
00000000: 7957 99bd f63f 913d a3bf 853b 31ee 523c
00000010: c372 29bd 8b9f 813d 4308 873c 0477 b6bc
00000020: f399 ef3b 1b19 e33c e979 b73d 7cb9 803d
00000030: 0470 27bd 5548 553d b497 81bc 2ded 83bd
00000040: 91a6 5dbd 33d0 40bb a354 f83c 837f 853d
00000050: afbc a1bd b66d 5abd 5f5e 1dbd 587d 0b3d
00000060: fda2 83bd a896 c7b9 f245 d23c f2d0 24bd
00000070: 783c 5abd c492 bc3c 3209 a53c 2403 753d
00000080: 7ba2 d43c 2a2e a43c 9ded 69bd 0656 1abd
00000090: 2cb6 613b 1d3f 65bd 8f8d 8fbd 6e4a a83d
000000a0: 1858 1a3d a1eb 91bd 44b6 2fbd e293 1e3d
000000b0: e32b 0bbd 2c89 7a3d 2ccd 2abd 4426 713d
000000c0: 93e7 003d 3fda 03bc 279f 5c3d 5f96 2cbd
000000d0: 8812 96bd 793f c33d a577 96bc b913 93bd
000000e0: 4135 9f3d 38a8 173d b5a3 993d f015 453d
000000f0: f035 b5bb 3b44 e9bc e34d a93c af18 08bc
00000100: a9de efbc 7c60 95bd 40ab bf3d b70a 3d3d
00000110: 9321 6c3d fcb5 9f3c d971 4e3d 5a3b 01bd
00000120: 5e07 153c b7c1 a33d 5b83 dabc c6b7 3ab9
00000130: df40 a13d 74ab 7fbd 738f 31bd 717f 673d
00000140: fedf 11bd 7dac 27bd cf64 aabc 66d0 28bd
00000150: 6152 273d 21f4 45bd bfed 5d3d 6418 9cbd
00000160: 3036 e6b9 3ac4 ae3d 5259 45bd 388a 3dbd
00000170: 382b 423b d211 37bc b926 703c 6f9f 7a3d
00000180: f8f0 98bd eb93 633b a90d 62bd 9a80 153d
00000190: 1369 d4bc 0d2a c43d 6df6 17bd 94f9 14bd
000001a0: be21 73bd a965 82bd 1adc a53d 6d36 91bd
000001b0: 9b07 7abd c43d ad3b e88c d3bc 52ac 073c
000001c0: debf b13d 0b70 893d 0b5d 8cbd b405 7b3d
000001d0: d386 66bd d6ca 823d 909b 223c 14de 96bb
000001e0: a326 203d 1853 2e3d 54be 38bd 1034 b33d
000001f0: e6a6 5f3d 0c1d 643d 7190 28bd eb4a 12bd
00000200: 1647 03bc c60e b53d 1d0e 59bd efd6 20bd
00000210: 0a24 743d 213c 87b9 4ff6 f1bc 2c7d edbc
00000220: ea97 79bd 68fd a3bd 0a0a 9d3b f093 c53c
00000230: 6a79 943c f125 a0bc 033e b5bd 010c b7bb
00000240: 0b77 38bd e8c3 a33c 6f31 2f3d 5c91 683d
00000250: 0cdb 22bd f368 46bd e8a4 07bd 9b7c 883d
00000260: f021 8b3d 7eb6 adbd 3ac3 fe3c 1b51 afbb
00000270: 6935 97bd e77c 06b9 848b a4bc cc52 413c
00000280: 482c d6bc 3b9e a1bd 8de1 903c 9aea 1ebd
00000290: 6593 8abd 01a3 21bd 1ba3 e2bc 2f73 20bd
000002a0: ef88 3bbd 0418 4bbd f47d 75bd 1abb cdba
000002b0: 7d05 1abd 7c4b 99bd 5544 8ebc de63 9bbd
000002c0: 0b4a 8d3d 9552 23bd 19b1 1d3d 8965 b93d
000002d0: 1a85 6e3d 8f38 433d b683 be3d f120 703d
000002e0: 048d 9c3d 8e70 79bd 2d03 163d 32ca a73d
000002f0: e1b0 80bc b3c4 5dbd 9612 893b a0bb 043d
00000300: 6c7a c43d dd11 5abd 722f edbb 265c 2dbd
00000310: 6daf cd39 8c03 8fbd 6db2 9a3d ef00 f8bb
00000320: e668 b43d 93c3 3f3d 7eaa 21bd 28d5 8abc
00000330: e2c9 bc3d c07b 1b3d 60e1 c6bc d695 d23b
00000340: cbc8 b0bc 1980 1cbd a343 14bd 2e3f 95bd
00000350: 188f 483d 2418 88bd 99f9 45bd a8dd 7a3d
00000360: b9a4 113c e45e 34bc 2c83 dcba f04d e83c
00000370: 121a 8c3d c446 16bc d62b cebb e9cb 86bd
00000380: 5bc9 3a3d bf3c 933d 35d9 53bd b5f0 ac3c
00000390: eec1 8bba 3253 8c3d af69 4b3d 8a88 a2bc
000003a0: 075c 5c3d 9227 36bd 7fd8 5e3d eaed c43d
000003b0: be26 b13d 2b44 bf3c c274 963d 53c5 993b
000003c0: a8c8 c23d 6ea9 54bd 9b55 85b9 20c8 90bd
000003d0: e361 8c3d a4df 08bd fc9b a8bc acc8 2a3d
000003e0: 1069 52bb a30b 9e3d f653 51bd c9b4 debc
000003f0: 96b4 5bbd 9559 1fbd 4c68 08bd 9725 5bbd
